…
Word embedding match number 52282 out of 62662
Namespace(batch_size=32, best_prefix='pred', channel_size=8, clip_gradient=0.6, conv_kernel_1=3, conv_kernel_2=3, cuda=0, dev_every=10000, embed_dim=250, epochs=20, gpu=-1, hidden_size=300, label=250, log_every=2000, lr=0.0003, num_layer=2, output='preprocess', output_channel=300, patience=2, pool_kernel_1=3, pool_kernel_2=3, rel_maxlen=17, rnn_dropout=0.3, rnn_fc_dropout=0.3, seed=3435, seq_maxlen=21, train_embed=True, vector_cache='data/sq_glove300d.pt', weight_decay=0, words_dim=300, words_num=62662)
VOCAB num 62662
Train instance 229706
Dev instance 10845
cnn(
  (embed): Embedding(62662, 300)
  (gru): GRU(300, 300, num_layers=2, dropout=0.3, bidirectional=True)
  (mha): MultiHeadAttention(
    (WQ): Linear(in_features=600, out_features=600, bias=False)
    (WK): Linear(in_features=600, out_features=600, bias=False)
    (WV): Linear(in_features=600, out_features=600, bias=False)
    (scaled_dot_product_attn): ScaledDotProductAttention(
      (dropout): Dropout(p=0.1)
    )
    (linear): Linear(in_features=600, out_features=600, bias=False)
    (dropout): Dropout(p=0.1)
  )
  (cnnmha): MultiHeadAttention(
    (WQ): Linear(in_features=300, out_features=300, bias=False)
    (WK): Linear(in_features=300, out_features=300, bias=False)
    (WV): Linear(in_features=300, out_features=300, bias=False)
    (scaled_dot_product_attn): ScaledDotProductAttention(
      (dropout): Dropout(p=0.1)
    )
    (linear): Linear(in_features=300, out_features=300, bias=False)
    (dropout): Dropout(p=0.1)
  )
  (linear1): Linear(in_features=600, out_features=2048, bias=True)
  (batchnorm1d): BatchNorm1d(2048, eps=1e-05, momentum=0.1, affine=True, track_running_stats=True)
  (relu): ReLU()
  (dropout): Dropout(p=0.3)
  (linear2): Linear(in_features=2048, out_features=250, bias=True)
  (linear3): Linear(in_features=900, out_features=2048, bias=True)
  (batchnormld2): BatchNorm1d(2048, eps=1e-05, momentum=0.1, affine=True, track_running_stats=True)
  (linear4): Linear(in_features=600, out_features=250, bias=True)
  (conv1): Conv2d(1, 300, kernel_size=(2, 300), stride=(1, 1), padding=(1, 0))
  (conv2): Conv2d(1, 300, kernel_size=(3, 300), stride=(1, 1), padding=(2, 0))
  (conv3): Conv2d(1, 300, kernel_size=(4, 300), stride=(1, 1), padding=(3, 0))
  (dropoutcnn): Dropout(p=0.5)
  (fc1): Linear(in_features=2048, out_features=250, bias=True)
  (cnnbatchnorm): BatchNorm1d(250, eps=1e-05, momentum=0.1, affine=True, track_running_stats=True)
)
  Time Epoch Iteration Progress    (%Epoch)   Loss
     2     1         1     1/7179        0% 0.007958
  2242     1      2001  2001/7179       28% 0.001354
  4749     1      4001  4001/7179       56% 0.001409
  7408     1      6001  6001/7179       84% 0.000939
 10066     2      8001   822/7179       11% 0.000963
Dev loss: 0.0017038800534025804, accuracy: 0.7739972337482711
…
